converted_model.tflite (tflite, 319808 bytes, 4 tensors)

dense_1/bias f4 [10]
000000 7b 09 b7 bd c3 82 04 3e e1 10 ac bc 45 51 e4 bc
       -0.08937355 0.12940507 -0.021004142 -0.027870784
000010 da 99 73 bc aa 01 64 3e fd f5 70 bc 34 64 ee 3d
       -0.014868224 0.2226626 -0.014707086 0.11640206
000020 56 9e 63 be 6e 7c a0 bd
       -0.22228369 -0.07836233

dense/bias f4 [100]
000000 b9 50 15 3d 47 63 35 3d eb 3c 16 bd 4d 6e ad 3d
       0.036453936 0.04428413 -0.03667919 0.08468304
000010 45 d5 69 3d 9f b0 91 3d c7 76 ef 3d c4 93 a3 3d
       0.057088155 0.07113766 0.11692577 0.079871684
000020 fc 36 38 3d 03 92 bb 3d 7a a7 3b bd ea bf eb 3d
       0.044974312 0.09158709 -0.045814015 0.11511214
000030 88 60 a8 bc 70 ef fe bc ac ca 8c bd f8 13 88 bc
       -0.020553842 -0.031120032 -0.06874594 -0.016611084
000040 b6 b3 ce 3c 27 84 23 3c b0 40 4a 3c 9e 4f 94 3c
       0.025232177 0.009980238 0.012344524 0.01810437
000050 61 d5 0c 3d 2b ea c9 bc a1 fd 8a 3d 83 c2 0f 3d
       0.03438318 -0.024647793 0.06786657 0.03509761
000060 42 82 1a 3d 7d 9e b9 3d f1 62 88 3c 0c 90 de 3c
       0.03772188 0.09063432 0.016648741 0.027168296
000070 82 31 03 3c dd 41 bc 39 88 ac a8 3d a8 4d a7 3c
       0.008007409 0.00035907226 0.08236033 0.020422772
000080 e0 76 4e 3d 17 42 97 bd 8d 20 f5 3c 89 09 19 3e
       0.050406337 -0.073856525 0.029922748 0.14945044
000090 ec 8b 77 3d cf 3e 45 bc 0a 03 c8 3d 2a fd d3 3c
       0.060436174 -0.0120389005 0.09766205 0.025877554
0000a0 9f 71 7a 3b 62 f9 b1 3d 29 58 91 bb df dd dd 3c
       0.0038214696 0.08690144 -0.0044355583 0.027083335
0000b0 8f 48 1b 3d f6 74 91 bd b3 13 57 bd 4f d0 8e bb
       0.037910994 -0.07102387 -0.05250902 -0.0043583284
0000c0 ef 01 7d 3c 37 72 12 bd b2 ab 29 3e 63 a9 71 bc
       0.015442356 -0.035753455 0.16569403 -0.014749858
0000d0 72 30 35 3e fb 3f 99 3d 81 0c 21 3d 38 e8 20 bd
       0.17694262 0.074829064 0.039318565 -0.03928396
0000e0 f2 16 14 bd 91 3f 66 3c de 84 9c 3d 08 f1 0c 3d
       -0.036154695 0.014053241 0.0764253 0.034409553
0000f0 78 2a b7 bc 47 28 6e bc b0 71 3d 3d c2 c3 25 bd
       -0.022359118 -0.01453597 0.046251 -0.040469892
000100 25 2f 21 bd 0e b8 e6 bc ea 4d 0d 3e 47 61 50 bc
       -0.0393516 -0.028163936 0.13799253 -0.012718505
000110 53 a8 6d 3d 01 08 70 bc 60 ea 18 bd a3 e6 6e 3d
       0.058021855 -0.014650346 -0.037332892 0.05832542
000120 dd 9e a0 bc d6 71 9c 3c 95 32 83 bd 7e 70 e2 3c
       -0.019607002 0.01909725 -0.06406132 0.027641531
000130 20 44 4b 3d 5e 5d cc 3c a9 ec af bd d9 b5 be 3c
       0.049625516 0.024946865 -0.08590061 0.023280071
000140 80 f5 23 3d 1c 6a a2 3a 43 e8 f4 3d 3f fb da bd
       0.04002905 0.0012391242 0.11958363 -0.10692453
000150 ec fa 1c bc 16 d7 e2 3c cf a7 eb bd 72 ad e5 bd
       -0.009581309 0.027690452 -0.11506616 -0.11214723
000160 7c 74 c1 3c db c1 56 3d 0a 6c 89 3b 22 d0 36 3d
       0.023615114 0.05243097 0.0041937875 0.044632085
000170 82 dc 94 3d 8b 8e 3a 3b a8 a7 ef 3c 57 b3 2f bd
       0.07268621 0.002846631 0.02925475 -0.04289564
000180 2b f6 c3 3d e2 57 37 3d 80 1b 77 3d 72 ca 91 bc
       0.09568437 0.044761546 0.06032896 -0.017796729

sequential/dense/MatMul f4 [100, 784]
000000 3c 20 de 3c 52 ca ae bc d4 28 55 3d 70 e7 ac 3b
       0.02711498 -0.021336708 0.05204089 0.005276613
000010 18 f0 1b bc c0 ea e0 ba 71 5d 8c bd 15 98 24 bd
       -0.009517692 -0.0017159805 -0.0685376 -0.0401841
000020 00 24 ff b8 12 c5 21 3d f2 21 84 bd 84 7f a0 bd
       -0.00012166053 0.03949458 -0.06451787 -0.07836822
000030 dc 66 66 bd 0c 1b ae 3c 2c 69 bb 3c 6c c6 8a 3c
       -0.056250438 0.021253131 0.022877298 0.016940318
000040 dc 35 c2 3c 6c f0 04 bd 97 ca 06 bd 81 7a 1d bd
       0.023707323 -0.032455847 -0.03290805 -0.038446907
000050 1a 86 53 bd 00 04 f6 ba 5c 59 81 3c b2 00 96 3d
       -0.05164156 -0.0018769503 0.01578968 0.07324351
000060 4d 6e 23 bd c2 81 b0 bc e6 70 83 bd 48 65 9c 3d
       -0.039900113 -0.021546248 -0.06418018 0.07636505
000070 78 78 84 bd 16 d0 84 3d 7e 96 97 bd 08 56 95 3d
       -0.0646829 0.06485002 -0.07401751 0.072918
000080 01 50 4f bd 7d 00 9c 3c c7 5e 83 3d bb 5b 23 bd
       -0.050613407 0.019043202 0.06414562 -0.039882403
000090 6d ab d8 bc 7f b5 fd bc bd 6e 6d bd a8 d2 78 3d
       -0.02644893 -0.030970333 -0.057966936 0.060747772
0000a0 1c 77 48 bd c8 4d 1a bd 2b 9c 8e bc d2 f9 41 3d
       -0.048941717 -0.037671834 -0.017408451 0.047357388
0000b0 93 d9 8b bc cb 4c a2 3c 1c 04 a2 3d b4 d7 97 3d
       -0.01707152 0.019812008 0.0791094 0.07414189
0000c0 6b 79 3a 3d d6 bd 90 bc bc 18 96 3d 2e a0 57 bd
       0.04552595 -0.017668646 0.073289365 -0.052642994
0000d0 e6 66 2e 3d 5a 41 f5 bc 46 3c a2 3d 38 18 87 3c
       0.0425786 -0.029938389 0.079216525 0.01649104
0000e0 04 06 66 3d 18 05 9a 3c 06 e3 0a bd 99 25 a4 3d
       0.05615808 0.018801257 -0.033907913 0.08014984
0000f0 68 28 f6 bc 6f 23 9b 3d 96 35 76 3c ad ff 8b 3c
       -0.030048564 0.07575118 0.015027424 0.01708969
000100 3c d3 98 3d 00 0d f8 bc 58 2e 7d 3d fd 76 23 3d
       0.07462165 -0.030279636 0.061811775 0.039908398
000110 13 9a c4 3c 6c 66 26 bd 11 22 76 3c 7d bf a5 3d
       0.02399925 -0.04062502 0.0150227705 0.08093164
000120 0f 17 0c 3d a9 54 84 3d 59 c9 25 3d c1 89 0d 3d
       0.034201678 0.0646146 0.040475223 0.0345552
000130 c7 32 89 bd 73 5b 49 3d 67 c2 63 3c 89 76 3a bd
       -0.06699138 0.04915948 0.01390133 -0.0455232
000140 05 d4 26 bd a9 67 6d 3d fe 38 8e bd 14 58 cf bc
       -0.04072954 0.057960186 -0.06944464 -0.025310554
000150 68 87 72 bd 76 8b 17 3d dc 04 9b 3d 82 88 b2 3c
       -0.059211165 0.036998235 0.07569286 0.021793608
000160 a0 35 08 3d 5f b4 ec bc 2d 05 7f 3b 01 19 b3 3c
       0.033254266 -0.028894601 0.0038912997 0.021862509
000170 88 5d a3 3d 43 92 9a bd ca 41 a2 bd c9 fa 09 3b
       0.07976824 -0.075474285 -0.079227045 0.002105402
000180 f8 4d 30 bd ab 86 f2 bc e9 66 c0 bc 45 d6 64 bd
       -0.043043107 -0.02960523 -0.023486571 -0.055868406
000190 35 5e 65 bc c1 b5 56 bd e4 b9 89 bb de c7 6f 3d
       -0.0139995115 -0.052419428 -0.004203068 0.058540218
0001a0 33 fc b9 3d 47 51 ad 3d e2 ee 91 3d a8 64 6b 3d
       0.09081306 0.08462768 0.071256414 0.05746904
0001b0 bf 2a 58 3d 39 35 b8 bc ce ad 88 3c 9e d4 89 3d
       0.05277514 -0.022486316 0.016684439 0.06730007
0001c0 75 a8 a3 bd 0a 80 f6 bc 79 47 a6 3d db 36 f3 3c
       -0.07991115 -0.03009035 0.08119101 0.029689243
0001d0 56 50 63 3d 4a 36 c9 bc ad be d7 bc bb d4 51 3d
       0.055496536 -0.02456202 -0.026336038 0.051228266
0001e0 bd b7 88 3d 3e 98 f1 3c 82 18 c3 bd 2e 60 61 bd
       0.0667567 0.02949154 -0.09526159 -0.055023365
0001f0 61 b9 f9 bc fc ae 68 bd 50 e4 52 bd 44 b2 3b bb
       -0.030483903 -0.056807503 -0.051487267 -0.002864019
000200 a0 76 13 bc ca 3c 81 3d 1a 34 21 bb a3 25 4d 3d
       -0.00900045 0.06310423 -0.0024597705 0.05008472
000210 4d 91 80 3d be 39 1e 3c 10 f2 d4 bc f4 da 08 bc
       0.06277714 0.0096573215 -0.02599433 -0.008352984
000220 d0 51 54 3d c3 78 9c bc 39 37 6d 3c f3 06 99 bd
       0.051835835 -0.019100552 0.014478498 -0.074720286
000230 e8 1b 75 bc 8e 03 8e bd 63 9d 0c bd ed a8 82 3d
       -0.014960267 -0.06934272 -0.034329783 0.06379876
000240 ac 95 8a bd 0e 75 58 bc 6a ae bb bd 6f 97 f2 3b
       -0.06766829 -0.013211502 -0.09164126 0.007403306
000250 ab be 05 3d 4f 89 f8 bc d4 22 50 3d d7 97 0d bd
       0.03265254 -0.030338911 0.050814465 -0.034568634
000260 2f 11 8a bd 4c 87 3f 3d 13 5d 0a bd 01 f2 22 bd
       -0.06741559 0.04675989 -0.03378017 -0.039781574
000270 7b f4 63 3d f8 c2 c3 3d 07 d2 7b 3d 4e d7 98 3d
       0.055653077 0.09558672 0.061479595 0.07462941
000280 2c 14 05 bd 9e ad a8 3c 2c 34 96 3c 2e 16 13 3c
       -0.03248994 0.0205906 0.018335424 0.008977456
000290 ce dd 05 3c 09 8e 7f bd a6 78 08 bd 2a b0 87 3c
       0.008170558 -0.062391315 -0.033318184 0.016563494
0002a0 cc 64 61 3d 84 9d 9f bd 23 cf 0a 3d 53 48 2b 3d
       0.055027768 -0.077937156 0.033888947 0.04181702
0002b0 b1 fb d1 bb 76 18 e2 bb 8a 84 93 bc 4a 4d 51 3d
       -0.006408178 -0.0068998886 -0.018007535 0.0510991
0002c0 ab a8 8d bd 29 3b 98 bd 5f 2c b6 bd 2e 98 82 bd
       -0.069169365 -0.07433159 -0.08895182 -0.06376682
0002d0 06 d2 1e bc 20 12 bb bd ea 77 0c b9 17 a8 1e 3d
       -0.009693628 -0.091343164 -0.00013396112 0.03873452
0002e0 92 19 14 bd ab a0 a1 3d da 89 dc 3d e8 9a da 3d
       -0.0361572 0.07891973 0.107684806 0.10674077
0002f0 71 5f 26 3d 23 2d bd bc 10 24 92 ba 3a db cf 3d
       0.040618364 -0.023092812 -0.0011149663 0.10149236
000300 7e 81 eb 3b 63 c7 63 bd 2b 2b 20 bb a5 65 85 bd
       0.0071870675 -0.055610072 -0.0024439793 -0.06513528
000310 72 54 f7 bc 4c 61 85 3d 16 51 58 3d 57 6b 1e bc
       -0.030191634 0.065126985 0.052811705 -0.0096691465
000320 e3 0e 32 3d 26 de 88 bd 76 89 52 3d 9d 94 92 bc
       0.04347123 -0.066829965 0.051400624 -0.01789313
000330 a9 c0 79 3d 82 a7 5e 3c 98 0f 22 bd 49 06 95 3d
       0.06097475 0.013589742 -0.039565653 0.072765894
000340 55 37 25 bd cc 48 19 bd 61 61 70 3d 50 16 22 3d
       -0.04033597 -0.03742294 0.058686618 0.03957206
000350 2c 9a 93 3a 77 82 10 bc bb 24 d3 bc 81 fa 37 3d
       0.0011261157 -0.008820168 -0.02577435 0.044916634
000360 83 b7 5b 3d 45 e2 ed 3c cd 86 88 bd d9 e9 46 bd
       0.053641807 0.029038558 -0.06666336 -0.04856286
000370 3c 6c 62 bd fa c5 98 3c d6 41 9a 3d 03 3d a9 3c
       -0.055279 0.01864909 0.075320885 0.020658975
000380 a8 7c 85 bc 5d 40 80 bd 58 40 30 3d de 95 02 3c
       -0.016294792 -0.06262276 0.043030113 0.007970301
000390 c2 51 a2 bd 93 93 a8 bd 3e a7 0d bd 99 d1 a9 3c
       -0.0792575 -0.082312725 -0.034583323 0.020729827
0003a0 45 5f 30 bb e5 6a 49 bd ca f1 9e bd 50 25 96 bc
       -0.0026912254 -0.04917421 -0.07760961 -0.018328339
0003b0 71 81 52 3d 90 93 a1 3c f9 25 ae 3d cd 7e 31 bb
       0.051392976 0.019723684 0.085033365 -0.0027083636
0003c0 91 f4 21 3d 6a fc ab 3d 1f 47 10 3d bf 84 b7 bc
       0.039539877 0.083977535 0.035224076 -0.022402165
0003d0 ae b7 c7 3c 7f 8f 6c bd f1 c3 1b bc 61 45 a6 3c
       0.024379577 -0.057754036 -0.009507165 0.020296754
0003e0 41 e7 05 bd 2c 66 1c 3d f6 1f 4d bd cc eb 35 bd
       -0.032691244 0.038183376 -0.05007931 -0.044414327
0003f0 5c 01 2e bd 5e b2 71 bd 32 f0 4e bd b8 b0 5e bd
       -0.042481765 -0.059007995 -0.050522037 -0.05436775

sequential/dense_1/MatMul f4 [10, 100]
000000 be b9 bc 3d 9e da f3 bd 82 d0 ba be 2d 0d b7 be
       0.09215115 -0.11906932 -0.36487204 -0.3575224
000010 d0 0d c8 bd 20 33 37 be 5f 3a e6 be e9 fa 8f be
       -0.097682595 -0.17890596 -0.4496641 -0.28121117
000020 fb 01 92 be cc 2c d7 3d 4d 0d 96 bd ff b3 b4 be
       -0.28517136 0.10506591 -0.07326756 -0.35293576
000030 37 2d 2e be 77 4b 78 3e a6 a3 60 bd 9a 00 70 bd
       -0.17009436 0.24247538 -0.054843567 -0.058594324
000040 c3 0d b2 bc ee f1 a5 bd c1 5f 9d 3d ff ce f5 bd
       -0.021735078 -0.08102785 0.07684279 -0.12002372
000050 ae be 08 3d 9b 76 34 be 46 e3 a5 bd e8 53 23 3e
       0.03338497 -0.1762337 -0.080999896 0.15949976
000060 00 43 9b be 1d 2e eb bc 19 b5 ac be 06 df aa bd
       -0.30324554 -0.028708512 -0.33731917 -0.083433196
000070 e0 eb c4 3e 4a 7d 34 be e0 e5 23 be 2f 70 17 bd
       0.38461208 -0.17625919 -0.16005659 -0.03697222
000080 fd 17 94 3e 9d 7c 03 3f e6 a6 67 bd 50 c5 b3 be
       0.28924552 0.5136202 -0.05655565 -0.35111475
000090 90 2c a5 3d 0a 7c 74 3e a7 3e 75 3d 51 41 a4 bd
       0.0806514 0.23875442 0.059874203 -0.080202706
0000a0 73 31 5c 3e b4 00 a5 3e df 3a a4 3d 3f 2d 66 bd
       0.21503238 0.322271 0.08019041 -0.056195494
0000b0 19 8c 79 be cb b6 9d 3d 08 af 9b 3e 0d ab fa 3d
       -0.2436985 0.077008806 0.30406976 0.122396566
0000c0 a2 ab 1e 3e d0 dd 79 3d 0f 13 bd 3e 9d f2 56 3c
       0.1549516 0.061002553 0.36928603 0.013119367
0000d0 6d 80 a4 be c4 90 dc bd 5d 4e 1d 3e 29 69 29 3e
       -0.3212923 -0.10769799 0.15361924 0.16544022
0000e0 50 c9 6c 3d a5 fc 28 bd 94 52 4a 3e 51 31 8f be
       0.057809174 -0.041256566 0.19758064 -0.27967313
0000f0 5c 29 7e be 85 b6 36 be d1 e5 10 be 24 e2 16 3e
       -0.24820465 -0.17843063 -0.14150168 0.14734703
000100 c0 11 43 3d df bf 85 3e 8f d7 83 3c 42 a3 e4 bd
       0.04762435 0.2612295 0.016093997 -0.111639515
000110 60 8e 62 3e 74 e2 50 3e 81 64 91 3b 1d cd 60 3e
       0.22124624 0.20398885 0.00443703 0.21953245
000120 a8 98 c3 bd 02 2a 47 be 6d d6 6b bd e3 1e 0c bf
       -0.09550601 -0.19449618 -0.05757754 -0.5473463
000130 85 0c 2f be 15 08 b7 be 08 e5 6c 3e ad af 84 be
       -0.1709462 -0.35748354 0.23134243 -0.2591528
000140 fe 65 19 be ff ac f0 bb ee af a0 3c 13 bc ee 3e
       -0.14980313 -0.0073448415 0.01961514 0.46627864
000150 67 a6 4e be 3b d3 7f be 7a 82 91 3d e4 28 0f 3e
       -0.20180665 -0.24982922 0.071049646 0.13980442
000160 ff 65 27 bd 80 26 9c 3a 1f 72 9b 3e 25 77 85 3e
       -0.040868755 0.0011913329 0.30360505 0.26067463
000170 5b 9b 34 be 87 cb 5d be 4d ff 21 3d d2 ce 71 3e
       -0.17637388 -0.21659671 0.039550114 0.23614052
000180 83 41 d2 b9 54 17 89 bd bf 55 e7 3e fa 83 57 3e
       -0.0004010313 -0.066939026 0.45182607 0.21046439
000190 7c 27 58 bc ef 2d ff 3d aa c0 b9 be 41 58 53 bd
       -0.013193008 0.12459933 -0.36279804 -0.051597837
0001a0 11 1c 9a 3d 5e a4 03 be d6 14 4b 3e 68 88 82 be
       0.075248845 -0.1285567 0.19832167 -0.25494695
0001b0 f4 d3 7e 3e 9c a3 69 be e8 b9 2e be eb 82 86 3e
       0.24885541 -0.22816318 -0.17063105 0.26271757
0001c0 60 c4 ec 3d e5 00 3e 3d e3 62 e6 bd 46 36 5c bd
       0.11560893 0.04638757 -0.1124933 -0.053762697
0001d0 3e 75 2e be 73 36 19 3e 01 5f 6b 3d 68 7e eb bd
       -0.17036912 0.14962177 0.05746365 -0.114987195
0001e0 f3 61 c2 3e cc 04 8f 3d 5d fc 95 3e 7a 82 64 bd
       0.37965354 0.06983337 0.292941 -0.055788495
0001f0 bd 28 4a bd 9e 11 48 3e a8 24 8b 3e a1 c5 07 be
       -0.049355257 0.1953797 0.27176404 -0.13258983
000200 36 31 1a 3e c3 f6 a0 be da 9c b2 be 7a b8 37 3e
       0.15057835 -0.31438264 -0.34885293 0.17941466
000210 76 2c 6d 3c a6 1f ac be be 8b 09 3e 4a 56 ee 3e
       0.014475932 -0.33617896 0.13432214 0.46550208
000220 09 6e c6 3e 6b 82 fc 3d 50 c6 a1 3e 26 0e be 3e
       0.38755825 0.12329563 0.31596613 0.3712017
000230 9c 23 0e 3d 1a 14 46 be a6 57 6b be 24 fa 9e bd
       0.03470193 -0.19343606 -0.22982654 -0.07762554
000240 17 d7 92 bd e8 47 57 be 89 54 f6 bd d7 6b 5b be
       -0.071699314 -0.21023524 -0.120278426 -0.21427856
000250 2c 3c 12 be fc 49 f3 3b b3 61 e0 be c5 4b b0 bd
       -0.14280766 0.007424591 -0.4382454 -0.08608202
000260 b0 1d ae 3e 85 d1 dd 3e fe 73 78 3e 2a 5e bc 3c
       0.34007025 0.43323913 0.24262998 0.02299412
000270 0a 48 67 3e d9 3c 9a bd 8c 21 84 be 14 ae ae 3d
       0.22586074 -0.07531137 -0.25806844 0.085292965
000280 3f cc b8 bd 27 4f 6f 3d 09 59 8e 3d 82 3b 10 be
       -0.09023332 0.058425095 0.06950576 -0.140852
000290 cc 09 3a bd 80 6f 4a 3e 09 bc 21 3d b8 be 53 3d
       -0.0454195 0.19769096 0.039485965 0.051695555
0002a0 df 3e dc 3e 47 f8 76 bd f4 b0 0a 3e 4c 74 64 3c
       0.43016717 -0.06029537 0.13544065 0.013943743
0002b0 b0 1a 93 3e d3 75 83 3c b1 94 8c be a7 bd eb 3e
       0.28731298 0.016047394 -0.27457193 0.4604313
0002c0 62 d9 8a be a5 6f 37 3d 40 4c 22 be 43 94 ea 3e
       -0.27118975 0.044784207 -0.158494 0.4581624
0002d0 5b 31 8d be 86 4c a6 bd 18 4f f7 be 46 a6 ed bd
       -0.27576718 -0.081200644 -0.4830253 -0.1160398
0002e0 c8 4a 9b 3d 15 cf a7 3d 5a bb 30 be 47 01 0a 3e
       0.07582623 0.08193795 -0.17258969 0.1347705
0002f0 0e d5 61 be 48 69 e0 3e fb d4 72 be d0 c6 99 be
       -0.2205393 0.43830323 -0.23714058 -0.30034494
000300 22 ef c0 be ff cc 07 3d 97 61 d5 bd ef 28 2b be
       -0.37682444 0.033154484 -0.104190044 -0.16714834
000310 59 39 e6 be c7 4c 1f 3e 0e bb 6b be b7 32 b3 bd
       -0.44965628 0.15556632 -0.23020574 -0.087499075
000320 ba f8 48 3e 4c 88 7e be ee 40 13 3d 47 03 3c bd
       0.19626132 -0.2485668 0.035950594 -0.045901563
000330 fb cb 51 be 59 b0 4f be 74 d4 3d 3e 42 68 a4 3e
       -0.20487969 -0.20282115 0.18538076 0.32110792
000340 9c c9 4d 3e 6f 8c 91 3e ca d1 47 3c 69 8d b4 be
       0.20096439 0.28427455 0.012196014 -0.35264137
000350 de 3f e3 bd fb a3 c0 bd 6a 73 c7 39 76 66 15 bd
       -0.11096166 -0.09406277 0.00038042228 -0.036474667
000360 ca 6f ba 3e 63 d3 12 be 95 92 f2 3d 0c 98 d3 3e
       0.36413413 -0.1433845 0.118443646 0.4132694
000370 32 5f ab 3e ba 21 03 be f3 6a 03 3e 64 1b 2b 3e
       0.33471066 -0.12805834 0.12833767 0.16709667
000380 5c c9 eb bd 42 e6 2e 3e 12 83 d6 3e f0 e4 08 3f
       -0.11513016 0.17080024 0.41896874 0.5347433
000390 e6 47 f9 be 8b cd 79 3e 77 61 06 3e 26 a8 67 3c
       -0.48687667 0.24394815 0.13123117 0.014139211
0003a0 a9 34 52 bd 8b 2b f2 3e 42 57 85 3e f3 70 0e 3d
       -0.051319752 0.47298846 0.26043135 0.034775686
0003b0 67 d3 34 3d e1 4a 1a bd 33 b0 55 be 25 60 94 3e
       0.04414692 -0.037669066 -0.20867996 0.28979602
0003c0 1b 11 c3 be fc 6b d4 be 4d 50 17 3d cd bb 9f be
       -0.38098988 -0.41488636 0.036941815 -0.31197968
0003d0 d4 8c e9 3d 8a 12 b5 bd fa 13 f7 3d 77 46 7f 3e
       0.11403814 -0.08841427 0.12064357 0.24929224
0003e0 0a b7 d0 3e 99 58 d4 be 9a 20 04 3d 0b 9c 83 bc
       0.40764648 -0.41473845 0.032257654 -0.016065618
0003f0 45 82 98 be 2a 44 ae 3d ad 44 82 3e 55 48 92 be
       -0.29786888 0.08509095 0.2544302 -0.2857081
